No GPU available, using CPU
Loading data...
Training samples: 5216
  Viral: 1345, Bacterial: 2530, Normal: 1341
Validation samples: 16
Test samples: 624
Creating model...
Model summary:
Model: "sequential"
+--------------------------------------------------------------------------+
| Layer (type)                    | Output Shape           |       Param # |
|---------------------------------+------------------------+---------------|
| conv2d (Conv2D)                 | (None, 148, 148, 32)   |           896 |
|---------------------------------+------------------------+---------------|
| batch_normalization             | (None, 148, 148, 32)   |           128 |
| (BatchNormalization)            |                        |               |
|---------------------------------+------------------------+---------------|
| max_pooling2d (MaxPooling2D)    | (None, 74, 74, 32)     |             0 |
|---------------------------------+------------------------+---------------|
| conv2d_1 (Conv2D)               | (None, 72, 72, 64)     |        18,496 |
|---------------------------------+------------------------+---------------|
| batch_normalization_1           | (None, 72, 72, 64)     |           256 |
| (BatchNormalization)            |                        |               |
|---------------------------------+------------------------+---------------|
| max_pooling2d_1 (MaxPooling2D)  | (None, 36, 36, 64)     |             0 |
|---------------------------------+------------------------+---------------|
| conv2d_2 (Conv2D)               | (None, 34, 34, 128)    |        73,856 |
|---------------------------------+------------------------+---------------|
| batch_normalization_2           | (None, 34, 34, 128)    |           512 |
| (BatchNormalization)            |                        |               |
|---------------------------------+------------------------+---------------|
| max_pooling2d_2 (MaxPooling2D)  | (None, 17, 17, 128)    |             0 |
|---------------------------------+------------------------+---------------|
| conv2d_3 (Conv2D)               | (None, 15, 15, 128)    |       147,584 |
|---------------------------------+------------------------+---------------|
| batch_normalization_3           | (None, 15, 15, 128)    |           512 |
| (BatchNormalization)            |                        |               |
|---------------------------------+------------------------+---------------|
| max_pooling2d_3 (MaxPooling2D)  | (None, 7, 7, 128)      |             0 |
|---------------------------------+------------------------+---------------|
| flatten (Flatten)               | (None, 6272)           |             0 |
|---------------------------------+------------------------+---------------|
| dropout (Dropout)               | (None, 6272)           |             0 |
|---------------------------------+------------------------+---------------|
| dense (Dense)                   | (None, 512)            |     3,211,776 |
|---------------------------------+------------------------+---------------|
| dense_1 (Dense)                 | (None, 3)              |         1,539 |
+--------------------------------------------------------------------------+
 Total params: 3,455,555 (13.18 MB)
 Trainable params: 3,454,851 (13.18 MB)
 Non-trainable params: 704 (2.75 KB)


Starting training...
Start time: 2026-04-25 12:17:58.082603
End time: 2026-04-25 12:25:08.559993
Training duration: 0:07:10.477390

Trained model saved to trained_model_3class.keras
Training curves saved to figures/training_curves_3class.png
…
